Dtalk/ML model/binary_form_of_model.tflite (tflite, 22620 bytes, 2 tensors)

sequential_22/dense_31/BiasAdd/ReadVariableOp/resource f4 [41]
0	0xbf32dec6	-0.69871175
1	0xbf2e47de	-0.6807841
2	0xc07f664a	-3.9906182
3	0xc09422a4	-4.6292286
4	0xbfeca5db	-1.8488115
5	0xc061a83f	-3.525894
6	0xc0860b88	-4.1889076
7	0xc061947a	-3.5246873
8	0xc0a29cd6	-5.081645
9	0xc02149b9	-2.5201247
10	0xc07ff848	-3.999529
11	0xc046215f	-3.0957868
12	0xc0203202	-2.5030522
13	0xc0acdc39	-5.4018826
14	0xc046a87c	-3.1040335
15	0xbf4d5f6e	-0.8022374
16	0xc0a986c5	-5.2977014
17	0xbfadf29c	-1.3589664
18	0xbec7dcc6	-0.39035624
19	0xc0398ad0	-2.8990974
20	0xc09fcd05	-4.993777
21	0xc0197391	-2.3976786
22	0xc08ce18d	-4.402533
23	0xc0886129	-4.2618604
24	0xbfb9d253	-1.4517311
25	0xc0a5a8f8	-5.176876
26	0xbf221ffc	-0.63330054
27	0xc02c6c02	-2.6940923
28	0xc048014a	-3.1250787
29	0xbf02daa6	-0.5111488
30	0xc093d3ba	-4.6195955
31	0xc0128a0d	-2.289676
32	0xc04b80f6	-3.1797462
33	0xc025854d	-2.586261
34	0xc094acb3	-4.6460814
35	0xc0838566	-4.110034
36	0xbf6e04c6	-0.92976034
37	0xc01d6886	-2.4595046
38	0xbfd37bbb	-1.6522135
39	0xc094ca45	-4.649691
40	0xbf4edb7f	-0.80803674

sequential_22/dense_31/MatMul f4 [41, 131]
0	0xbf42ce7a	-0.7609631
1	0xbdb6f3ec	-0.08933243
2	0xbf2477d9	-0.64245373
3	0x3f0ad2ba	0.54227793
4	0xbfc5244b	-1.5401701
5	0x3eca72ab	0.3954061
6	0xbf56921e	-0.8381671
7	0x3f0c2f35	0.5475953
8	0xbfb948e8	-1.4475374
9	0x409e10aa	4.939534
10	0xbf57dc5d	-0.8432062
11	0x3f33aa6d	0.70181924
12	0xbfa2fae6	-1.2732818
13	0xbefe0dfe	-0.4962005
14	0xbfb35f5b	-1.4013475
15	0x3e30a4fc	0.17250437
16	0xbf25d856	-0.6478323
17	0x4088a5d6	4.2702436
18	0xbfe3e73b	-1.7804941
19	0xbfc07949	-1.5037013
20	0x3e510421	0.20411731
21	0x3f053128	0.5202813
22	0x3f038cde	0.5138682
23	0xbf8317cc	-1.0241637
24	0x409f0343	4.969148
25	0xbfe6e2fa	-1.8038018
26	0xbf3d94a9	-0.7405496
27	0xbf19a748	-0.60020876
28	0xbdf7a1ba	-0.12091394
29	0xbfa6f9ad	-1.3044945
30	0xbea1e67d	-0.3162116
31	0xbfa324fa	-1.2745659
32	0xbf8a50fa	-1.0805962
33	0xbec02fcc	-0.37536466
34	0xbfbe5b0f	-1.4871539
35	0x3ebe4dcd	0.37168732
36	0x3e30a4fc	0.17250437
37	0xbf15b7a1	-0.5848332
38	0xbfe8e31e	-1.8194311
39	0xbf5d89a0	-0.86538124
40	0xbbfabcfd	-0.0076519237
41	0xbfb5fd47	-1.4217919
42	0xbec1b8c2	-0.37836272
43	0x4097d34d	4.7445436
44	0xbfca1e26	-1.579045
45	0xbfd9501a	-1.697757
46	0xbf14f1ee	-0.58181655
47	0xbebec827	-0.3726208
48	0xbe4cfde3	-0.20018725
49	0xbf4148ef	-0.7550191
50	0xbf297db6	-0.66207445
51	0xbf26c20f	-0.6513986
52	0xbdf58cc4	-0.119897395
53	0xbef8be76	-0.4858281
54	0xbf96653e	-1.1749647
55	0xbf66c5cd	-0.9014557
56	0xbf21763b	-0.6307103
57	0xbf6dd6df	-0.9290599
58	0xbeb0dcf1	-0.34543565
59	0xbf2c7208	-0.673615
60	0xbfd30856	-1.6486919
61	0x3f038cde	0.5138682
62	0x3c973c72	0.01846144
63	0x3e95d62c	0.29264963
64	0xbd0aa405	-0.033847827
65	0xbf89a8d7	-1.0754651
66	0xbf0c6d10	-0.54853916
67	0x3e055ab0	0.13022876
68	0xbfc8a623	-1.5675701
69	0xbf841374	-1.0318437
70	0xbf2882b4	-0.6582444
71	0xbfaa79b1	-1.3318387
72	0xbf8b4316	-1.0879848
73	0xbf5e1fd7	-0.86767334
74	0x3f3501d0	0.7070589
75	0xbf90a4da	-1.1300309
76	0xbf8fb09e	-1.1225774
77	0xbfa49fc4	-1.2861257
78	0x3eb8ee01	0.36119083
79	0xbf209387	-0.6272511
80	0xbfd21e44	-1.6415486
81	0x3e488b0e	0.19584295
82	0xbe4cfde3	-0.20018725
83	0xbf2ad5d7	-0.66732544
84	0x3e54ed86	0.20793733
85	0xbfb4cb0c	-1.4124465
86	0x3e81ce95	0.25352922
87	0x3e81ce95	0.25352922
88	0xbf4204b3	-0.7578842
89	0x3eff67d9	0.49883917
90	0x3f038cde	0.5138682
91	0xbe8b2b87	-0.27181646
92	0x3f038cde	0.5138682
93	0x3e8e81e6	0.2783348
94	0xbfacb96e	-1.3494089
95	0xbfe296da	-1.7702286
96	0xbf221b5d	-0.63323003
97	0x3f038cde	0.5138682
98	0xbf2514fa	-0.6448513
99	0xc063e1f0	-3.5606651
100	0x3eb8ee01	0.36119083
101	0xbf2a985d	-0.6663874
102	0xbed0c1da	-0.40772897
103	0xc01e834c	-2.4767637
104	0xbf8a1c6b	-1.0789922
105	0x3f053128	0.5202813
106	0xc01f146d	-2.4856217
107	0xbfb7a68f	-1.4347705
108	0xbf950c8a	-1.1644452
109	0x3eb72fb3	0.3577858
110	0xbfa71dfd	-1.3056027
111	0xbea8a728	-0.3294003
112	0xbf019251	-0.50613886
113	0x3e30a4fc	0.17250437
114	0xbf1fa19e	-0.62355983
115	0x3f038cde	0.5138682
116	0x3f096077	0.5366282
117	0xbec2b402	-0.3802796
118	0xbf054426	-0.5205711
119	0xbdbde54b	-0.0927225
120	0xc0174dc6	-2.364122
121	0xbfe1de50	-1.7645969
122	0xbf6688f4	-0.90052724
123	0xbfadab5e	-1.3567922
124	0x3e57aca9	0.21061958
125	0xbe828907	-0.2549517
126	0xbf4803c1	-0.7813073
127	0x3e8c8ae7	0.27449724
128	0xbee51a2b	-0.44746527
129	0xbf384e77	-0.7199473
130	0xc0414d5c	-3.0203466
131	0xc022d27f	-2.5440977
132	0xbf4c3ee1	-0.79783446
133	0xbfd14cda	-1.6351578
134	0x3f0029df	0.5006389
135	0xc06605f4	-3.5941133
136	0x3e5ea76b	0.21743552
137	0xbf5c01ba	-0.85940135
138	0xbf21b69e	-0.63169277
139	0xbfd045c8	-1.6271296
140	0xbfead726	-1.8346908
141	0xbf6946a4	-0.91123414
142	0x3f38502c	0.7199733
143	0xbf9df856	-1.2341411
144	0xbe32cfbc	-0.17462057
145	0xc03cf972	-2.952725
146	0x3e8053cb	0.2506393
147	0xbf2417a9	-0.640986
148	0xbff74ba5	-1.931996
149	0xc07a90e3	-3.9150932
150	0xc019d5c5	-2.4036725
151	0x3e8d764d	0.2762932
152	0x3ef593a4	0.47964203
153	0x3f454b0f	0.77067655
154	0xbfb7137c	-1.4302821
155	0xbfdc59be	-1.7214887
156	0xbfc6d792	-1.5534537
157	0xbfac4164	-1.3457456
158	0xbf181ac3	-0.59415835
159	0xbf7bca2b	-0.9835536
160	0x40bfac40	5.9897766
161	0x3dc390f9	0.09549136
162	0x40b1edfb	5.5603004
163	0xbfb17d0c	-1.3866286
164	0xbf92ff57	-1.1484174
165	0xbf96e429	-1.1788379
166	0x3e4316d5	0.19051678
167	0x3e8053cb	0.2506393
168	0xbf55be98	-0.8349395
169	0xbfd7ed05	-1.6869208
170	0xbe9d27ec	-0.3069452
171	0xbf033a94	-0.5126126
172	0xbfcd4a66	-1.603833
173	0xbf9388a3	-1.1526073
174	0xbfb97396	-1.4488399
175	0xc07aa666	-3.9164062
176	0xc01c2cd1	-2.4402354
177	0xbf0a0e93	-0.5392849
178	0xbf9286fc	-1.1447444
179	0xbd27ebd8	-0.040996403
180	0xbfc0d9be	-1.506645
181	0xbf3463b5	-0.7046464
182	0xbfdea608	-1.7394419
183	0x3c8895f5	0.016673068
184	0xbf51f886	-0.8201984
185	0xbf924a40	-1.1428909
186	0xbfae79b1	-1.3630887
187	0xbf1595b6	-0.58431566
188	0xbebc4c2a	-0.3677686
189	0xbd4ccdb1	-0.05000085
190	0xbfd23981	-1.6423799
191	0xbff12af7	-1.8841237
192	0x3f454b0f	0.77067655
193	0x3f03a3db	0.514219
194	0xbf3bfb67	-0.73430485
195	0xbf345b2c	-0.7045162
196	0xbf8ab8cc	-1.0837646
197	0xbe50cb9b	-0.2039017
198	0xc00bf03b	-2.1865375
199	0xbfbb284b	-1.4621671
200	0xbfcb2b9b	-1.5872682
201	0xc02f813f	-2.7422636
202	0xbfab79aa	-1.3396504
203	0xbfb3fbd6	-1.4061229
204	0xbf436b2b	-0.763354
205	0x3f2ab212	0.66677964
206	0xbf8cdd9c	-1.100513
207	0xbf8be683	-1.0929722
208	0xbfa142fc	-1.2598567
209	0x3e37c9b2	0.17948034
210	0xbfdb7d2a	-1.7147572
211	0xbfc3d85d	-1.5300404
212	0x3f23928d	0.63895494
213	0xbd27ebd8	-0.040996403
214	0xbf28f1f2	-0.6599418
215	0x3e8ed951	0.27900174
216	0xbfcb1f1c	-1.5868869
217	0x3f08d4c5	0.5344966
218	0x3f08d4c5	0.5344966
219	0xbf53f9ab	-0.8280284
220	0x3f10bacc	0.5653503
221	0x3f454b0f	0.77067655
222	0xbf511fac	-0.8168895
223	0x3f454b0f	0.77067655
224	0x3f276cce	0.654004
225	0xbfc1efe9	-1.515134
226	0xbfd10823	-1.6330608
227	0xbf2c7912	-0.6737224
228	0x3f454b0f	0.77067655
229	0xbf2f6445	-0.68512374
230	0xc023d204	-2.5596933
231	0x3e37c9b2	0.17948034
232	0xbf357cb6	-0.7089342
233	0xbfa0b006	-1.2553718
234	0xbf2b63f5	-0.669494
235	0xbf5929dd	-0.84829503
236	0x3ef593a4	0.47964203
237	0xbff13347	-1.8843774
238	0x40b9da96	5.807933
239	0xc05ee52d	-3.4827378
240	0x3f1dac0e	0.6159066
241	0xbfa399a5	-1.2781264
242	0xbf883586	-1.0641334
243	0xbf007be1	-0.50189024
244	0x3e8053cb	0.2506393
245	0xbf1e0408	-0.617249
246	0x3f454b0f	0.77067655
247	0xbf3085c9	-0.6895414
248	0xbfd1284a	-1.634042
249	0xbfbcb6d9	-1.4743301
250	0x3eb148cc	0.34625852
251	0x404948e3	3.1450737
252	0xbfd03b5c	-1.6268115
253	0xbf7297c4	-0.94762826
254	0xc04e5f2d	-3.224559
255	0x3e903d23	0.28171644
